model.onnx (onnx, 20455 bytes, 5 tensors)

policy.mlp_extractor.policy_net.0.weight f4 [64, 4]
0	0xbd4f4486	-0.05060246
1	0x3c4c2ec1	0.012462319
2	0x3f12f22d	0.5740078
3	0x40807cc7	4.0152316
4	0xbc25d27c	-0.010120984
5	0xbec1b73c	-0.3783511
6	0xbefef96b	-0.49799666
7	0xc0445135	-3.0674565
8	0xbd8bf3be	-0.068335995
9	0x3dcf6fa3	0.10128715
10	0x3f1103d1	0.5664645
11	0x40587521	3.382149
12	0x3e137995	0.14401849
13	0xbe71c538	-0.23610389
14	0x3ec658f0	0.3873973
15	0x40044bc2	2.067124
16	0x3d3310f7	0.04371735
17	0xbb0b648c	-0.0021269647
18	0xbee9e4a8	-0.45682263
19	0xc074a4ec	-3.822566
20	0x3b0357b2	0.0020041284
21	0x3ba089e5	0.004899251
22	0xbcf61184	-0.030037649
23	0x3f8b80e1	1.0898706
24	0x3e4ab77f	0.1979656
25	0x3e533b03	0.2062798
26	0x3edc8752	0.4307199
27	0x40348df0	2.8211632
28	0xbe473dca	-0.19457164
29	0xbe0ead4e	-0.13933298
30	0xbedd75b1	-0.43253854
31	0xc060d326	-3.5128875
32	0xbdc5ec1a	-0.096641734
33	0x3e916a33	0.28401336
34	0x3f16dd34	0.5893128
35	0x40463129	3.0967505
36	0x3d91eb8d	0.07125006
37	0x3e15f483	0.14644055
38	0x3ef8369f	0.48479173
39	0x4059442b	3.3947856
40	0x3d1a0bdf	0.037608977
41	0x3e1790a9	0.14801277
42	0x3ed3a14a	0.4133399
43	0x4044eb23	3.0768516
44	0x3e3558a4	0.17709595
45	0xbb99c4f4	-0.004692668
46	0x3f11123e	0.5666846
47	0x40715488	3.7707844
48	0x3d1f7660	0.03893125
49	0xbd4f0789	-0.050544295
50	0x3f03020b	0.5117499
51	0x40777159	3.8662932
52	0x3e6a5d33	0.22887115
53	0xbc56062c	-0.013062995
54	0x3ed68744	0.41900074
55	0x3fbb39d7	1.4627026
56	0xbdbb5268	-0.09146577
57	0xbd2b38d4	-0.041802242
58	0x3f0b48c5	0.5440791
59	0x402e3063	2.7217033
60	0x3c93f562	0.018061344
61	0x3ca03f98	0.019561574
62	0xbeef46ba	-0.46733648
63	0xc06da479	-3.7131636
64	0xbd973bb7	-0.073844366
65	0x3e9dd515	0.3082663
66	0xbef4a3e8	-0.477813
67	0xc055bb74	-3.3395662
68	0xbe12dcca	-0.14342037
69	0xbd026a6f	-0.031839784
70	0xbf210cdc	-0.62910247
71	0xc0839fec	-4.1132717
72	0xbd0c4b7c	-0.034251675
73	0xbc54c6a7	-0.012986816
74	0x3f174712	0.5909282
75	0x407ed77e	3.9819026
76	0xbcd1af30	-0.025596231
77	0xbe01c97f	-0.12674521
78	0xbef89d73	-0.48557624
79	0xc0735834	-3.8022585
80	0xbded03dc	-0.11573002
81	0x3d32aad9	0.043619964
82	0xbeb703a1	-0.35744956
83	0xbf7c6838	-0.98596525
84	0x3c37e973	0.011225092
85	0x3d57d4ea	0.052693285
86	0xbebc1839	-0.3673723
87	0xc056123d	-3.3448632
88	0x3dab3052	0.08358826
89	0xbd467785	-0.048453826
90	0x3eb9a193	0.36256084
91	0x40543749	3.3158743
92	0xbe447378	-0.19184673
93	0x3e41a878	0.18911922
94	0x3f09931b	0.5374009
95	0x4046986c	3.103053
96	0xbe4054ed	-0.18782397
97	0x3c261789	0.010137447
98	0xbf0dc9cc	-0.5538604
99	0xc07b2089	-3.9238608
100	0xbc6d9eb4	-0.01450317
101	0x3d510ce2	0.051037677
102	0xbec05534	-0.37565005
103	0xc05d9405	-3.4621594
104	0xbcfe9312	-0.031075988
105	0xbd8992d1	-0.06717456
106	0x3eacb9a4	0.33735383
107	0x40152aa0	2.3307266
108	0x3de0e58f	0.10981285
109	0x3e02b087	0.12762652
110	0x3f06fe44	0.5273173
111	0x404837bf	3.1284025
112	0x3e64aa04	0.22330481
113	0xbda64df0	-0.08120334
114	0x3d979a41	0.074024685
115	0xbf7f0b43	-0.9962656
116	0x3d33b691	0.04387528
117	0x3db01602	0.08597948
118	0x3f1d9843	0.6156046
119	0x407374f3	3.804013
120	0x3d08738b	0.033313315
121	0xbe81fb5b	-0.25387082
122	0xbf11780e	-0.56823814
123	0xc05e5000	-3.4736328
124	0xbde06b63	-0.109579824
125	0x3e0039c9	0.12522043
126	0x3efd2c94	0.49448073
127	0x404647f9	3.0981429
128	0xbd83442d	-0.06409488
129	0xbe46a5fb	-0.19399254
130	0xbf10ceee	-0.5656575
131	0xc06789da	-3.6177888
132	0xbdacf998	-0.08446044
133	0xbc91ce2d	-0.017798508
134	0xbf0c5fdd	-0.54833776
135	0xc0649d31	-3.5720942
136	0x3cda9e9b	0.026686957
137	0xbe5fd4ae	-0.21858475
138	0xbf5f9900	-0.87342834
139	0xc07c199b	-3.9390628
140	0x3defb8ed	0.11705194
141	0x3c9546d0	0.018222243
142	0x3f1da7f5	0.6158441
143	0x40653edd	3.5819619
144	0xbdbadb4d	-0.091238596
145	0xbd9c3422	-0.07627131
146	0xbeebd667	-0.46062014
147	0xc0672d6e	-3.6121478
148	0x3ce1b32e	0.02755126
149	0xbc262a44	-0.010141913
150	0x3ecced4d	0.40024796
151	0x3fc5093e	1.5393445
152	0xb9e2d7ad	-0.0004326677
153	0x3b590ceb	0.0033119272
154	0xbd25a4d3	-0.04044039
155	0xbd9d9136	-0.076937124
156	0x3e5f89d9	0.21829928
157	0x3ea5e521	0.32401374
158	0x3f1cd8a2	0.61268055
159	0x405ce31a	3.4513612
160	0xbe828f3c	-0.25499904
161	0x3cb3e0e7	0.021957828
162	0x3d843e4d	0.064571954
163	0x40281417	2.6262262
164	0xbd9999a3	-0.07500007
165	0xbda5cd2c	-0.08095774
166	0xbeaea174	-0.34107554
167	0xc050a845	-3.2602704
168	0x3c759610	0.014989391
169	0xbd296f3a	-0.04136584
170	0x3e8bda75	0.27315107
171	0x4024af25	2.57319
172	0x3e8ed14b	0.27894053
173	0xbbbacbf1	-0.0057005812
174	0xbf1cc5da	-0.612394
175	0xc05d3e42	-3.456925
176	0x3ca868a5	0.02055771
177	0xbcc165ee	-0.023608174
178	0x3f3258d7	0.6966681
179	0x3fbb9723	1.4655498
180	0xbdb80dfb	-0.089870416
181	0x3d841158	0.064486206
182	0x3f0bc1bf	0.5459251
183	0x40746ff1	3.8193324
184	0x3e2123b7	0.1573628
185	0xbd162638	-0.036657542
186	0x3ee3df76	0.44506425
187	0x3ff6bd1a	1.9276459
188	0xbc3d3c5d	-0.011550036
189	0xbd8034f5	-0.06260101
190	0x3f3bddec	0.733855
191	0x40846773	4.137628
192	0xbdd994cb	-0.10624083
193	0xbe032c51	-0.12809874
194	0xbf0d0209	-0.5508123
195	0xc07ea2ef	-3.9786947
196	0xbde4934d	-0.11160908
197	0x3c97fb47	0.018552436
198	0x3f1bb852	0.60828125
199	0x407a5897	3.911657
200	0xbd08ccac	-0.033398315
201	0x3dad24b4	0.08454266
202	0xbe489483	-0.19587903
203	0xc00fa5e8	-2.244501
204	0xbcbbfbd8	-0.022947237
205	0x3dde4117	0.10852259
206	0x3f3e5bd6	0.7435888
207	0x4077588f	3.8647802
208	0xbe2af50f	-0.16695045
209	0xbdfbef74	-0.123015314
210	0xbf1c3c42	-0.61029446
211	0xc06d68c3	-3.7095191
212	0xbec996a6	-0.39372748
213	0xbdea4019	-0.11438007
214	0x3f22b1be	0.63552463
215	0x40538d28	3.3054905
216	0x3d4e7a29	0.05040947
217	0x3c44cf6a	0.012012342
218	0xbef7af5b	-0.48375973
219	0xc065f989	-3.5933554
220	0xbd864ae8	-0.06557256
221	0x3cecc34c	0.028901719
222	0xbf081202	-0.5315248
223	0xbe0889a9	-0.13333763
224	0x3d3a140f	0.045429286
225	0x3e2574f8	0.16157901
226	0x3f1a2437	0.6021151
227	0x406fcc09	3.7468283
228	0xbd521385	-0.051288147
229	0xbeecf3d5	-0.4627978
230	0xbeee53af	-0.4654822
231	0xc05418b0	-3.3140068
232	0xbd0dc751	-0.03461391
233	0x3e72432d	0.23658438
234	0x3f1f3888	0.62195635
235	0x407557c4	3.8334818
236	0xbbb18e1b	-0.0054185516
237	0x3d0d8397	0.034549322
238	0x3f07ed8a	0.5309683
239	0x407af403	3.9211433
240	0xbe05e909	-0.13077177
241	0x3e0fa167	0.14026414
242	0xbedbffef	-0.429687
243	0xc032ea64	-2.795556
244	0xbd130f25	-0.035903115
245	0x3e0cdfa2	0.13757184
246	0x3f4da9fc	0.803375
247	0x40683a05	3.6285412
248	0xbddd5a6d	-0.10808263
249	0x3bf66461	0.0075192903
250	0x3f05fb53	0.52336615
251	0x40311941	2.7671664
252	0x3c5006ec	0.012696963
253	0xbda8503f	-0.08218431
254	0x3ec9c872	0.3941074
255	0x404f96d6	3.2435813

policy.mlp_extractor.policy_net.0.bias f4 [64]
0	0x3c356773	0.0110720275
1	0x3a07f91c	0.00051869615
2	0x3ca46843	0.020069247
3	0xbd53f6a0	-0.05174887
4	0xbc882f0b	-0.016623994
5	0x389d61d8	7.504568e-05
6	0xbd43777a	-0.047721364
7	0x3d0f1df2	0.034940667
8	0x3c896715	0.016772786
9	0xbc8ac472	-0.016939376
10	0xbc6c8a17	-0.01443722
11	0xbd4ba953	-0.049722027
12	0xbc953427	-0.018213345
13	0xbe0ba1e9	-0.13635983
14	0x3cf9f11b	0.030510476
15	0xbb9c5a12	-0.0047714794
16	0x3c82c3b6	0.015962463
17	0x3d15e4c9	0.03659514
18	0x3bd6e3ee	0.006557933
19	0x3c24a869	0.010049918
20	0x3d8d98d9	0.06913919
21	0xbb9d5a0e	-0.004801995
22	0xbd1b66ea	-0.037939943
23	0x3d6271b7	0.05528423
24	0x3d2e9b13	0.04262836
25	0x3bc28986	0.005936804
26	0x3c9c0cb1	0.01904902
27	0xbd184166	-0.037171744
28	0xbddbbd90	-0.107295156
29	0xbc913421	-0.017725052
30	0xbbc94820	-0.006142631
31	0x3d24f6f0	0.04027456
32	0x3c92c398	0.017915532
33	0x3cdd9e6c	0.02705308
34	0x3bc9df4b	0.006160652
35	0xbd1300a5	-0.035889287
36	0x3cb3c409	0.021944063
37	0xbc52dd02	-0.012870075
38	0x399e0fdc	0.00030147925
39	0xbd03da89	-0.032190833
40	0x3de5ea8b	0.11226376
41	0x3ce039aa	0.027371246
42	0xbc13db3e	-0.009024439
43	0xbd3b467b	-0.045721512
44	0xbc271740	-0.010198414
45	0x3c96de05	0.018416414
46	0xbdb2a75a	-0.08723326
47	0xbbc00f2f	-0.005861185
48	0x3cc49d67	0.024000837
49	0x3ce72d95	0.028219977
50	0x3c38b262	0.0112729985
51	0xbbf889ce	-0.007584787
52	0x3d1fd954	0.03902562
53	0x3d7c8459	0.061649654
54	0xbc96f141	-0.018425586
55	0x3d1932f0	0.037402093
56	0xbc880c91	-0.016607555
57	0xbc836358	-0.016038582
58	0x3b8ae2d2	0.004238465
59	0xbab78d0a	-0.0014003825
60	0x3d55dcf8	0.052212685
61	0xbb3821ee	-0.0028096396
62	0x3d3faa56	0.046793304
63	0xbba9eb8c	-0.00518555

policy.mlp_extractor.policy_net.2.weight f4 [64, 64]
0	0x3e0868d1	0.13321234
1	0x3e9233eb	0.28555235
2	0xbe935bd4	-0.28780997
3	0x3e88ac5a	0.26693994
4	0xbe23e8c0	-0.16006756
5	0x3e8dc397	0.27688286
6	0xbdeba11d	-0.11505339
7	0xbe704844	-0.23465067
8	0xbd09ba84	-0.03362514
9	0xbd9b382a	-0.07579072
10	0x3e084b4a	0.1330997
11	0x3ed08346	0.40725154
12	0x3da5ce8a	0.08096035
13	0x3da4ec73	0.080529116
14	0x3e9616d8	0.29314303
15	0xbe07a46d	-0.13246317
16	0xbdd61dce	-0.104549035
17	0xbebe13b3	-0.37124404
18	0x3ec83097	0.3909957
19	0xbe28a43b	-0.16468899
20	0x3e59dc4a	0.2127544
21	0xbca5e924	-0.020252772
22	0x3e198a4d	0.14994164
23	0x3efc0cf6	0.49228638
24	0x3c027ec9	0.007964798
25	0x3cd0222c	0.02540692
26	0xbe260dde	-0.16216227
27	0xbdab0bc0	-0.083518505
28	0xbd8bfcb5	-0.068353094
29	0x3e658883	0.22415356
30	0x3e59da8e	0.21274778
31	0x3d022e99	0.03178272
32	0xbe2a7f6b	-0.16650169
33	0xbda8a969	-0.082354374
34	0xbe9c5917	-0.3053672
35	0x3e764088	0.24048054
36	0x3e344fe4	0.17608601
37	0x3c62a02a	0.013832131
38	0xbea7233d	-0.32644072
39	0xbc0e0201	-0.00866747
40	0x3e0723c5	0.13197239
41	0x3e12ef22	0.14349034
42	0xbe8c173b	-0.27361473
43	0xbe31c8c0	-0.17361736
44	0x3a79479b	0.0009509266
45	0x3de86cd5	0.11348883
46	0xbe56a0f1	-0.20959832
47	0x3ea9241e	0.33035368
48	0xbd32d968	-0.043664366
49	0xbdf977f2	-0.12181081
50	0x3d1e21e2	0.038606532
51	0x3b2dd63a	0.0026525394
52	0xbdd52d08	-0.1040898
53	0xbdbdf77c	-0.092757195
54	0xbe963cd6	-0.2934329
55	0x3e02a93e	0.12759873
56	0x3de24220	0.110477686
57	0x3e67e6b6	0.22646603
58	0xbde1601b	-0.11004659
59	0x3cc4f400	0.02404213
60	0x3e319402	0.17341617
61	0x3dc5a908	0.09651381
62	0xbb9c742e	-0.004774592
63	0xbcca9d31	-0.024733158
64	0xbca0afaf	-0.019615022
65	0xbe8b8fb7	-0.27258083
66	0xbe0ea729	-0.13930954
67	0x3d8239b8	0.06358665
68	0x3dcf58f8	0.10124391
69	0x3c839547	0.016062392
70	0x3cd7ba0c	0.026333831
71	0x3eb9757e	0.36222452
72	0x3d28335c	0.041064605
73	0xbbcc4627	-0.0062339487
74	0xbe0c69f7	-0.13712297
75	0x3da891a2	0.08230902
76	0xbeb12c83	-0.34604272
77	0x3eb3d6f8	0.35124946
78	0x3e236ef0	0.15960288
79	0xbe61ecf0	-0.2206304
80	0xbe5b8ad7	-0.21439682
81	0xbe89f59c	-0.26945198
82	0xbe0ab6fa	-0.13546363
83	0x3e0c93a3	0.13728194
84	0xbe47c452	-0.19508484
85	0xbd1f682f	-0.038917717
86	0x3dfb16bf	0.12260198
87	0xbdaab8df	-0.083360426
88	0xbe30cf34	-0.17266542
89	0xbdbd6272	-0.092472926
90	0x3db1b256	0.08676593
91	0xbeb2b32b	-0.3490232
92	0xbe8cf856	-0.27533215
93	0x3ddaa2c3	0.106755756
94	0xbe28e454	-0.1649335
95	0xbe8c9b95	-0.2746245
96	0x3e8fd98d	0.28095666
97	0xbe2b9228	-0.16754973
98	0xbe35d288	-0.17756093
99	0xbd8f1956	-0.06987254
100	0x3c69b18a	0.01426352
101	0x3dc064fa	0.0939426
102	0xbe2b8fd9	-0.16754092
103	0x3cb23c2c	0.021757208
104	0x3d1272fc	0.03575419
105	0xbe31e7c5	-0.1737357
106	0x3e0aac73	0.13542347
107	0xbc84c742	-0.016208295
108	0xbddb49c9	-0.10707433
109	0xbe295a65	-0.16538389
110	0xbe51d7b9	-0.20492448
111	0xbb5c6aff	-0.003363311
112	0xbdfe2f8f	-0.12411415
113	0x3dd8d4af	0.10587441
114	0x3ec70b2f	0.3887572
115	0xbe29b7c6	-0.1657401
116	0x3e01ca68	0.12674868
117	0x3d875a47	0.06609016
118	0x3d6413b7	0.055682864
119	0xbe960bd0	-0.29305887
120	0xbe805e7e	-0.25072092
121	0xbe6224e7	-0.2208439
122	0xbd248d9f	-0.040174123
123	0x3d4a0897	0.0493246
124	0x3e61fad7	0.22068344
125	0x3e0f3508	0.13985074
126	0xbe440e51	-0.19146086
127	0x3d824df1	0.063625224
128	0xbf03ad30	-0.5143614
129	0xbc9c729f	-0.019097624
130	0xbe821ae6	-0.25411147
131	0x3e673da7	0.22582112
132	0x3e9b23ec	0.30300844
133	0xbe27c806	-0.16384897
134	0x3d395111	0.045243327
135	0xbb7d4037	-0.0038643011
136	0x3d927d2c	0.07152781
137	0xbef9c640	-0.48784065
138	0x3de4e467	0.11176377
139	0xbe861663	-0.26188955
140	0xbe857888	-0.2606852
141	0x3eaa28e6	0.33234328
142	0xbe144527	-0.14479505
143	0x3e561f23	0.20910315
144	0xbe794c42	-0.24345496
145	0x3efc9458	0.49331927
146	0xbed02a9f	-0.40657517
147	0x3e981605	0.297043
148	0x3c710a7d	0.014711973
149	0x3f0e35f9	0.55551106
150	0xbe7bc6ef	-0.24587606
151	0xbdda6ea3	-0.106656335
152	0x3edfcf45	0.43712822
153	0x3cf99cf8	0.030470356
154	0xbdf7f16b	-0.12106594
155	0x3da56382	0.0807562
156	0xbc2e24bd	-0.010628876
157	0xbf04119a	-0.5158936
158	0x3e58ceaf	0.21172594
159	0xbef624c6	-0.4807493
160	0x3e4008da	0.18753377
161	0x3ecc524b	0.39906535
162	0x3f3fce7f	0.74924463
163	0xbf216123	-0.63038844
164	0x3dfc148a	0.12308605
165	0xbdcb9854	-0.09941164
166	0xbdacb8e7	-0.08433705
167	0xbe99a6ce	-0.30010074
168	0xbe424556	-0.18971762
169	0xbc4d23d7	-0.012520752
170	0x3e15e2de	0.14637324
171	0x3e0fdfd8	0.14050233
172	0x3d9605cd	0.07325325
173	0xbdb7bc13	-0.08971419
174	0xbcb54f7e	-0.022132631
175	0xbef58da9	-0.4795964
176	0x3e1b6f53	0.15179186
177	0xbef741af	-0.482923
178	0x3d1b15b5	0.0378625
179	0xbee4013e	-0.44532198
180	0x3f21f890	0.632699
181	0xbda4de45	-0.08050207
182	0x3ea3f0c6	0.32019633
183	0x3e950659	0.29106405
184	0xbecc115b	-0.3985699
185	0x3e347919	0.1762432
186	0xbed8e322	-0.4236079
187	0xbeb9856d	-0.36234608
188	0x3e8c601d	0.2741708
189	0xbefc0892	-0.4922529
190	0x3e2f6f3e	0.1713228
191	0x3ceb6954	0.028736748
192	0x3d0b5733	0.034018707
193	0xbd18d77b	-0.037314873
194	0xbd7e0f9b	-0.0620266
195	0x3cc9d226	0.02463634
196	0x3da215e8	0.079143345
197	0xbc0ab438	-0.008465819
198	0xbe9046af	-0.28178927
199	0xbdc50444	-0.09619954
200	0x3d42c925	0.047555108
201	0xbe3ec240	-0.18628788
202	0xbc3818f2	-0.011236416
203	0x3e1a93d9	0.15095462
204	0x3ebb7830	0.36615133
205	0xbd6a67f6	-0.05722805
206	0xbd832de8	-0.0640524
207	0x3e05aa30	0.13053203
208	0xbe9398b8	-0.28827453
209	0x3d86180d	0.06547556
210	0x3dd6e5f0	0.10493076
211	0xbedeac13	-0.43490657
212	0xbe16a98d	-0.14713116
213	0xbc448388	-0.01199425
214	0x3dde908a	0.108674124
215	0x3e2cf63c	0.16890806
216	0xbe126dfc	-0.14299768
217	0xbe95b8aa	-0.2924245
218	0x3e1acb31	0.15116574
219	0xbe27f439	-0.16401757
220	0x3d872bca	0.06600149
221	0x3e3fecd6	0.1874269
222	0xbdfec7fd	-0.124404885
223	0xbd58e209	-0.05294994
224	0xbe17755d	-0.14790864
225	0x3ea83d20	0.32859135
226	0xbddc83c0	-0.10767317
227	0x3ead414e	0.33838886
228	0x3e09d626	0.13460597
229	0x3d7e67e0	0.06211078
230	0xbe4634b0	-0.19356036
231	0x3e05d2fc	0.13068765
232	0x3eb8808f	0.36035582
233	0xbd5f929e	-0.054583184
234	0x3f1ebf01	0.620102
235	0xbdf5d023	-0.120025896
236	0xbe3f328e	-0.18671629
237	0xbe84e8eb	-0.25958952
238	0x3d856573	0.065134905
239	0x3f1589f9	0.58413655
240	0xbe8de936	-0.27716988
241	0x3d71be18	0.05901918
242	0xbe18d19d	-0.14923711
243	0x3e9e3595	0.30900255
244	0xbb353970	-0.0027652644
245	0x3e622759	0.22085322
246	0xbc9342ce	-0.01797619
247	0xbdb92925	-0.09041051
248	0x3dcc2e47	0.09969764
249	0x3e753ce5	0.2394901
250	0x3dd1da22	0.10246684
251	0x3cf43254	0.029809155
252	0xbd9129b4	-0.07088032
253	0x3e97e241	0.29664806
254	0xbe27db72	-0.16392305
255	0x3dbef74f	0.09324514

policy.mlp_extractor.policy_net.2.bias f4 [64]
0	0x3b057785	0.0020365429
1	0x3c57ccca	0.013171384
2	0x3cbfa430	0.02339372
3	0x3d30ac82	0.043133266
4	0xbc67dab0	-0.01415126
5	0xbd13881f	-0.036018487
6	0xbc93fc2f	-0.018064586
7	0x3d3dd898	0.046349138
8	0xbc9f0afe	-0.019414421
9	0x3d418e94	0.047255114
10	0x3cc66039	0.024215804
11	0xbd392c16	-0.04520806
12	0xbcea9d5a	-0.028639484
13	0xbc8bb847	-0.017055644
14	0xbb3ce8a8	-0.0028825197
15	0xbc0432ba	-0.008068735
16	0x3d2cb9cc	0.042169377
17	0xbc73a136	-0.014869979
18	0xbb463eb5	-0.0030249779
19	0xbcffc73f	-0.031222938
20	0xbcb7ed19	-0.022451924
21	0xbce16fcd	-0.027519131
22	0xbc4c34ab	-0.012463729
23	0x3d054ca4	0.032543793
24	0xb9905400	-0.00027528405
25	0x3badbaa7	0.0053017917
26	0x3c29410b	0.010330449
27	0x3bec7b22	0.007216827
28	0x3c13e58a	0.009026894
29	0xbd827b0e	-0.06371127
30	0x3cb83f45	0.022491107
31	0xbd35f8f1	-0.044426862
32	0xbc6b9a8f	-0.014380111
33	0x3c0a7fff	0.008453368
34	0xbd23138a	-0.039813556
35	0xbace1a99	-0.001572448
36	0xbcd08952	-0.025456104
37	0x3cb424d4	0.021990217
38	0xbc00e915	-0.007868071
39	0x3a71aa32	0.00092187815
40	0x3cdd6d53	0.027029669
41	0xbc7ed28c	-0.015553128
42	0xbdb9b6c7	-0.09068065
43	0xbc37faca	-0.011229226
44	0x3cd86d31	0.026419254
45	0xbba9e230	-0.0051844344
46	0x3cf1437e	0.029451128
47	0x3c138913	0.009004849
48	0xbd22f467	-0.03978386
49	0x3ce61ca7	0.028089834
50	0xbb2233d0	-0.002475012
51	0xbc7ec905	-0.0155508565
52	0xbcf3e86b	-0.029773911
53	0xbc629bc3	-0.013831082
54	0x3cbf0833	0.02331934
55	0xbcd33616	-0.025782626
56	0x3bd6fdd1	0.006561019
57	0xbd4779b6	-0.048700057
58	0x3bdc7955	0.006728331
59	0x3c857381	0.016290428
60	0xbc9bd63c	-0.019023053
61	0x3cd2b220	0.025719702
62	0x3d335474	0.043781713
63	0xbc72232d	-0.014778894

policy.action_net.weight f4 [1, 64]
0	0x3c872487	0.01649691
1	0xb72df50a	-1.0368656e-05
2	0xbdf80bad	-0.12111602
3	0x3cb4668e	0.022021558
4	0xbb16ec40	-0.0023029
5	0x3d899e4b	0.06719645
6	0x3c3d5432	0.011555718
7	0xbb162e3f	-0.0022915748
8	0xbb157b8c	-0.0022809235
9	0x3c2e651b	0.010644223
10	0x38fe7519	0.00012133475
11	0x3dd3627d	0.103215195
12	0xbc76a3b3	-0.015053677
13	0x3de9b9b3	0.114123724
14	0xbc9eabb1	-0.019368978
15	0x396bf6ec	0.00022503332
16	0xbe1e3b33	-0.1545227
17	0x3bbeb1d1	0.005819537
18	0x39d1ff00	0.00040053576
19	0x3d94d957	0.07268017
20	0xb8f4317e	-0.00011644045
21	0x3a96a52e	0.0011493319
22	0xbb56c161	-0.0032769071
23	0x3bdc01af	0.006714068
24	0x39e2d1de	0.00043262442
25	0x38db2eb4	0.00010451433
26	0x3c8d73dc	0.01726716
27	0x3c5d0c9c	0.013491776
28	0xbb3c4407	-0.002872707
29	0xba4b7e1c	-0.0007762627
30	0x3c324a6e	0.010882003
31	0x3d80c96f	0.062884204
32	0xbb02c83d	-0.0019955777
33	0xbb9f5e24	-0.0048635174
34	0x3a5466ef	0.00081024965
35	0x3e15862a	0.14601961
36	0x3a1eab50	0.0006052749
37	0xb983a42a	-0.0002510858
38	0x3c6f71ab	0.014614503
39	0xb8607324	-5.3512995e-05
40	0x3bddcbbc	0.006768672
41	0x3c6ead79	0.014567726
42	0xbba5964c	-0.005053317
43	0xb9881392	-0.00025954522
44	0xbd25422f	-0.04034632
45	0xbc60650f	-0.013695969
46	0xbc4ba63d	-0.012429771
47	0xbbba5958	-0.00568692
48	0x3dd62a7f	0.10457324
49	0x3ca52c4c	0.020162724
50	0xbcdb9ac8	-0.026807204
51	0xbca16ca5	-0.019705126
52	0x3b016611	0.0019744674
53	0xbc81288a	-0.0157664
54	0xbdf4ccf5	-0.11953155
55	0x3d2051e6	0.039140604
56	0xb91ea9c6	-0.000151313
57	0x3def4794	0.11683574
58	0xbcc890d0	-0.024483114
59	0xba45a043	-0.00075388345
60	0x3d478d32	0.04871864
61	0xbc4c6883	-0.012476089
62	0x3cde8b9d	0.027166182
63	0x3d898eff	0.067167275
